HW4/code/Tables/DQN.pt (torch, 9527 bytes, 6 tensors)

fc1.weight f4 [32, 4]
-0.15924579 -0.08512766 0.14664456 -0.31365743 -0.15638122 -0.13052672 0.5736496 -0.13830647
-0.32145357 -0.47530055 -0.43659985 -0.16088289 0.5325817 -0.39454845 0.25695714 0.3561851
-0.1255367 0.2660097 0.24298568 -0.4448765 -0.5159519 0.22147569 0.3259238 -0.15099263
-0.41149306 -0.0379984 0.029137345 0.089350894 -0.24475437 0.21209688 -0.048232865 0.2760177
0.17710778 0.19920187 -0.16035889 0.39497954 0.016477048 -0.4245605 0.37177265 -0.095211625
-0.08918309 -0.09133995 -0.644394 -0.5646052 0.37149277 0.04380924 0.38609755 -0.36758164
-0.36971867 0.44594467 -0.39956528 0.4053439 -0.48264825 -0.0019221306 -0.000693202 -0.0019772649
-0.12157339 0.18922824 -0.10677171 0.4809245 -0.33163178 -0.11730027 -0.34200367 0.18294594
0.38743135 0.39990732 0.42389855 -0.2534558 -0.3279453 -0.05177027 -0.15875626 -0.18138945
-0.40367073 -0.08137181 -0.06155104 -0.40280953 -0.3119215 -0.046351835 -0.08562495 0.19245733
0.3170734 0.14317662 -0.3725946 0.093732476 0.14221495 -0.012928816 0.39815098 -0.45556265
-0.31015015 0.12060368 0.47722945 -0.53376025 -0.2933601 0.28626886 0.19559787 0.33831808
0.32215255 -0.042733364 0.41607633 -0.44451156 0.5290157 -0.123574875 0.19885713 -0.57163626
0.34058958 -0.32794654 -0.44576377 -0.20661247 0.05703099 0.25997028 -0.23587997 0.278852
0.29797325 0.1508702 0.47969043 0.3250364 -0.015681088 -0.4665491 -0.4898321 -0.29280686
0.30740276 -0.114796065 -0.13188605 -0.3628671 -0.38023174 -0.3484129 0.14097317 -0.4530204
00000000: 5411 23be 6957 aebd fe29 163e b597 a0be
00000010: 6622 20be cca8 05be b3da 123f 36a0 0dbe
00000020: 9095 a4be 985a f3be 048a dfbe 7cbe 24be
00000030: 4657 083f 4102 cabe e38f 833e e55d b63e
00000040: b18c 00be 6c32 883e 3dd1 783e dac6 e3be
00000050: 6c15 04bf 86ca 623e 7cdf a63e d09d 1abe
00000060: 38af d2be 36a4 1bbd 71b1 ee3c 9afd b63d
00000070: e4a0 7abe ed2f 593e d38f 45bd 3152 8d3e
00000080: be5b 353e 93fb 4b3e 1f35 24be c23a ca3e
00000090: e0fa 863c fe5f d9be fc58 be3e 50fe c2bd
000000a0: a0a5 b6bd 7110 bbbd 01f7 24bf f789 10bf
000000b0: 4d34 be3e 5171 333d 94ae c53e a933 bcbe
000000c0: c44b bdbe dc52 e43e d293 ccbe 3c89 cf3e
000000d0: ac1d f7be 00f0 fbba 00b8 35ba 0095 01bb
000000e0: 78fb f8bd 0cc5 413e 20ab dabd bc3b f63e
000000f0: a4cb a9be 203b f0bd 1b1b afbe 2e56 3b3e
00000100: 675d c63e a7c0 cc3e 3b09 d93e f5c4 81be
00000110: 72e8 a7be 100d 54bd 0091 22be 28be 39be
00000120: eead cebe 43a6 a6bd f11c 7cbd 0d3d cebe
00000130: 2db4 9fbe 6cdb 3dbd 225c afbd 8913 453e
00000140: 7257 a23e e49c 123e b8c4 bebe d0f6 bf3d
00000150: cca0 113e 62d3 53bc 72da cb3e 823f e9be
00000160: 00cc 9ebe 10ff f63d 6b57 f43e 83a4 08bf
00000170: 4c33 96be d591 923e cf4a 483e 0738 ad3e
00000180: 2ef1 a43e 2e09 2fbd f507 d53e 0597 e3be
00000190: 936d 073f d314 fdbd 34a1 4b3e c156 12bf
000001a0: c261 ae3e 9ce8 a7be 263b e4be 3892 53be
000001b0: 5499 693d d31a 853e 858a 71be b0c5 8e3e
000001c0: f38f 983e b87d 1a3e fc99 f53e 2c6b a63e
000001d0: a075 80bc 86df eebe 46cb fabe c8ea 95be
000001e0: e563 9d3e 331a ebbd 230d 07be b7c9 b9be
000001f0: bcad c2be 2d63 b2be 455b 103e 4af2 e7be

fc1.bias f4 [32]
0.42232397 0.1928079 -0.41692996 -0.085789174 -0.22548793 0.48518974 0.60863304 0.38303483
0.6440393 -0.49917132 -0.3655123 0.6547385 -0.19443297 -0.49624735 -0.44117004 0.65700614
0.5617115 -0.4792137 0.5982474 0.61042166 -0.35428506 0.5652818 0.03693418 0.477965
-0.0037619856 -0.21293424 -0.46032876 0.23615296 0.6458117 -0.44348007 0.28603226 0.06531048
00000000: d93a d83e 6f6f 453e d877 d5be 3cb2 afbd
00000010: 4fe6 66be ca6a f83e 60cf 1b3f 241d c43e
00000020: c2df 243f 6293 ffbe 6e24 bbbe f19c 273f
00000030: 7019 47be 2214 febe 0ae1 e1be 8e31 283f
00000040: 53cc 0f3f 805b f5be be26 193f 9844 1c3f
00000050: da64 b5be 4fb6 103f 4b48 173d d4b7 f43e
00000060: a58b 76bb 6f0b 5abe 36b0 ebbe 15d2 713e
00000070: ea53 253f d20f e3be d272 923e 80c1 853d

fc2.weight f4 [50, 32]
0.07272782 0.09413603 0.05350618 0.09652704 0.10216719 -0.020045927 0.143643 -0.119699135
0.05243452 0.15255897 0.34016615 0.021585565 0.10181074 -0.0805928 0.119614854 -0.08552846
-0.016380977 -0.09744967 0.13129318 -0.008532739 0.12812577 0.22278887 0.061623752 -0.28071442
-0.023353867 0.1819698 0.07623179 -0.25230438 -0.30410865 -0.13302268 0.22256537 0.14681317
0.16866896 0.13854706 0.12597658 -0.117915384 0.22655675 0.04491152 -0.13740672 -0.008479999
-0.03311986 -0.16407923 0.05879584 0.11058161 -0.009069458 0.1691811 -0.07470531 -0.0030109168
0.0031477243 -0.09269919 -0.008757459 -0.059503384 -0.06819339 0.051420204 0.06611738 -0.26946312
0.22442529 -0.008098412 -0.15212107 -0.14596023 -0.22102131 0.16875623 0.08758699 0.22666122
-0.03395255 -0.10144566 -0.054636374 -0.015769716 0.25439948 0.19414315 -0.039525196 -0.14847225
-0.15999773 0.044260785 0.3141918 0.1446608 -0.15518333 -0.1269783 0.14408533 0.0019215795
-0.08059659 0.0994636 0.082273275 -0.20735018 -0.06432051 0.011533398 0.20225528 -0.035286732
0.097284265 0.009046765 -0.06387142 0.061047606 0.031701438 0.0549621 0.20301464 0.0082582915
-0.043703943 0.090479486 0.10288106 -0.050259724 0.05985253 0.12065326 -0.15810524 -0.082510754
-0.021753117 0.040413603 -0.062876344 -0.044224408 0.014665887 -0.028058544 0.14347653 0.018797271
0.012908106 0.1499844 -0.010569192 0.1326478 0.17449944 0.07046031 -0.07085156 -0.007031962
0.034794606 0.06673374 0.06627588 0.01997585 -0.06880948 0.081493154 -0.13215078 -0.16710512
-0.058893364 0.2195325 0.17438675 0.10734777 0.09453279 0.24435675 0.08632355 0.24751724
0.30432507 -0.17249441 -0.011857709 0.2244562 -0.012161225 -0.13449624 0.14963897 0.17417295
-0.10080694 0.13527156 -0.037480276 0.3205786 0.035787374 0.23530279 -0.06523433 0.16692175
0.11226449 -0.039507817 0.07334764 0.42685536 0.4362081 -0.11843178 0.061183743 0.13850643
-0.06719183 -0.03650593 0.03500323 0.07691128 -0.037570752 0.18549374 -0.027602477 -0.35374832
-0.25738263 -0.07215315 0.2334519 0.06928941 0.0495598 0.00092221797 0.028621644 -0.23443319
-0.12942187 0.053435013 0.14167003 -0.09973784 0.08729838 0.10741193 0.20905744 -0.13867466
0.070738226 0.12848632 -0.13526909 -0.22529635 -0.27816373 0.17303257 0.21398701 0.030905811
0.22743888 -0.019545568 0.030758291 -0.048496053 0.044826392 -0.014760263 -0.07349492 0.03175291
-0.27694237 -0.09211383 0.1792918 0.17399123 -0.014338568 -0.17475607 0.16196679 -0.22694238
0.16479942 0.16207291 -0.038661316 -0.08889227 -0.14071892 -0.00054456753 0.14656685 -0.06534392
0.09048571 0.17898963 0.14075156 -0.0034804214 -0.2721984 -0.08088553 0.2223393 -0.06727563
-0.027590128 0.050282087 0.07498364 0.05580453 0.017640145 0.06664526 0.3234215 0.30279744
0.39305833 -0.11514261 -0.06688264 0.015386744 0.074092016 0.12836759 -0.14149258 0.12310777
0.03118371 -0.11017902 0.0832576 0.28437123 0.017974347 -0.018491458 0.020151416 0.11107944
-0.17541951 -0.1245432 -0.001767084 0.3981891 0.27781877 -0.15402287 0.1752591 0.018669227
00000000: 53f2 943d 64ca c03d 4c29 5b3d f8af c53d
00000010: 083d d13d 5b37 a4bc 2717 133e d224 f5bd
00000020: 94c5 563d 6b38 1c3e 422a ae3e 36d4 b03c
00000030: 2682 d03d d70d a5bd a2f8 f43d 8c29 afbd
00000040: 6631 86bc b193 c7bd b871 063e e7cc 0bbc
00000050: 6733 033e c422 643e 3069 7c3d cdb9 8fbe
00000060: 9c50 bfbc 4b56 3a3e 6a1f 9c3d 0a2e 81be
00000070: 21b4 9bbe 1937 08be 2de8 633e 3156 163e
00000080: 8eb7 2c3e 48df 0d3e 0100 013e 9f7d f1bd
00000090: 7efe 673e 24f5 373d 59b4 0cbe b2ef 0abc
000000a0: b1a8 07bd 6304 28be e8d3 703d 9c78 e23d
000000b0: 1098 14bc cf3d 2d3e 19ff 98bd cd52 45bb
000000c0: 0d4a 4e3b 13d9 bdbd 727b 0fbc d2b9 73bd
000000d0: faa8 8bbd fe9d 523d 8d68 873d 12f7 89be
000000e0: becf 653e 34af 04bc a0c5 1bbe 9976 15be
000000f0: 6953 62be 6fce 2c3e cf60 b33d e119 683e
00000100: d411 0bbd bec2 cfbd 64ca 5fbd 7e2f 81bc
00000110: a640 823e 76cd 463e 2ce5 21bd 1c09 18be
00000120: 72d6 23be cc4a 353d bfdd a03e f621 143e
00000130: 61e8 1ebe 9906 02be 1b8b 133e 82dd fb3a
00000140: d30f a5bd 92b3 cb3d e47e a83d 9b53 54be
00000150: 79ba 83bd 94f6 3c3c 021c 4f3e d288 10bd
00000160: f93c c73d e238 143c 05cf 82bd 0e0d 7a3d
00000170: 5ed9 013d f01f 613d 12e3 4f3e c94d 073c
00000180: e802 33bd 4f4d b93d 4eb3 d23d 24dd 4dbd
00000190: ed27 753d 0e19 f73d 57e6 21be 66fb a8bd
000001a0: 9833 b2bc bc88 253d 50c5 80bd a724 35bd
000001b0: 3049 703c 08db e5bc 83eb 123e bcfc 993c
000001c0: 857c 533c 8395 193e 672a 2dbc d3d4 073e
000001d0: fbaf 323e 7f4d 903d 9f1a 91bd 5f6c e6bb
000001e0: ca84 0e3d b3ab 883d a6bb 873d 65a4 a33c
000001f0: fceb 8cbd e2e5 a63d 8952 07be 9b1d 2bbe
00000200: 2b3a 71bd 21cd 603e 7192 323e 26d9 db3d
00000210: 689a c13d a838 7a3e 67ca b03d 2975 7d3e
00000220: 7fd0 9b3e 60a2 30be d646 42bc d9d7 653e
00000230: e03f 47bc 62b9 09be f53a 193e 655a 323e
00000240: de73 cebd a184 0a3e eb84 19bd e122 a43e
00000250: c895 123d 37f3 703e 9499 85bd 89ed 2a3e
00000260: edea e53d f3d2 21bd 4a37 963d c98c da3e
00000270: ab56 df3e 5c8c f2bd ce9b 7a3d a1d4 0d3e
00000280: df9b 89bd 3e87 15bd 8c5f 0f3d a983 9d3d
00000290: cae3 19bd 12f2 3d3e 971e e2bc 801e b5be
000002a0: a8c7 83be 08c5 93bd 040e 6f3e 9be7 8d3d
000002b0: 38ff 4a3d 00c1 713a f077 ea3c 410f 70be
000002c0: 2b87 04be acde 5a3d f311 113e 5a43 ccbd
000002d0: 7ec9 b23d c9fa db3d 2713 563e bb00 0ebe
000002e0: 34df 903d eb91 033e fb83 0abe 16b4 66be
000002f0: 7a6b 8ebe 732f 313e 691f 5b3e 2f2e fd3c
00000300: bde5 683e 071e a0bc d0f8 fb3c cca3 46bd
00000310: e19b 373d 08d5 71bc 8184 96bd 570f 023d
00000320: 64cb 8dbe 2da6 bcbd 4598 373e c22a 323e
00000330: 50ec 6abc 41f3 32be 9fda 253e 9563 68be
00000340: 2ec1 283e 71f6 253e 545b 1ebd 270d b6bd
00000350: 9f18 10be 4fc1 0eba 9f15 163e 08d3 85bd
00000360: 9250 b93d 0f49 373e 2d21 103e c817 64bb
00000370: 975d 8bbe 50a7 a5bd eaac 633e cec7 89bd
00000380: b104 e2bc 97f4 4d3d 0691 993d 4a93 643d
00000390: 1182 903c 4f7d 883d 8197 a53e 4408 9b3e
000003a0: f13e c93e e4cf ebbd c4f9 88bd af18 7c3c
000003b0: 8ebd 973d cb72 033e 6ee3 10be ed1f fc3d
000003c0: fb74 ff3c 8aa5 e1bd f682 aa3d 1b99 913e
000003d0: f03e 933c 667b 97bc 9514 a53c 9e7d e33d
000003e0: 2ca1 33be 8110 ffbd 809d e7ba 71df cb3e
000003f0: 433e 8e3e 2cb8 1dbe 1f77 333e 35f0 983c

fc2.bias f4 [50]
-0.08855159 -0.06765918 0.021188583 0.03381142 0.20420788 0.07978629 -0.09633544 0.24718118
0.1975725 -0.061130337 -0.015413731 -0.08056743 0.27614796 0.08275971 -0.13313785 0.3063854
0.19057466 0.08719412 0.18153745 0.26167873 -0.045054033 0.010139416 0.12289573 0.26381308
0.13853134 -0.11179228 -0.14075723 0.037616596 0.28012952 0.16051365 0.032966916 -0.11154345
0.2701356 0.30686465 0.13031328 0.052463476 -0.15451188 0.20275682 -0.07517274 0.28893286
-0.10875161 -0.16614439 0.27502504 0.27467653 0.18614168 0.006467175 0.2733186 0.12853912
0.22222403 0.054788053
00000000: 895a b5bd e590 8abd ae93 ad3c d87d 0a3d
00000010: df1b 513e ff66 a33d 844b c5bd 101d 7d3e
00000020: 7250 4a3e ce63 7abd e089 7cbc 8900 a5bd
00000030: 4463 8d3e ec7d a93d 4a55 08be 8cde 9c3e
00000040: 0126 433e d592 b23d f4e4 393e c1fa 853e
00000050: 948a 38bd cb1f 263c c2b0 fb3d 8212 873e
00000060: 29db 0d3e 5af3 e4bd aa22 10be dc13 1a3d
00000070: 236d 8f3e b15d 243e 5108 073d e470 e4bd
00000080: 374f 8a3e 5d1d 9d3e d870 053e f1e3 563d
00000090: 5d38 1ebe 7c9f 4f3e 2af4 99bd 02ef 933e
000000a0: 2ab9 debd c121 2abe 15d0 8c3e 67a2 8c3e
000000b0: ed9b 3e3e 99ea d33b 6af0 8b3e c29f 033e
000000c0: b28e 633e 7069 603d

fc3.weight f4 [2, 50]
-0.01830021 -0.1084408 0.060195427 0.11703718 0.18788305 -0.20402011 -0.109651126 0.10867073
0.3113185 -0.045668572 0.095563754 -0.104681276 0.06752088 -0.06282978 -0.102168046 0.2278992
0.25472632 0.10087183 0.12811096 0.26205534 -0.09830547 0.18180406 -0.041433185 0.11653401
-0.03659539 -0.03754495 -0.048645947 0.2565103 0.16564249 0.17359409 -0.03398014 0.12471332
0.038288966 0.09989222 0.2574401 -0.06010427 -0.009881049 -0.0035596674 -0.10617337 0.053071454
0.029950723 -0.075402044 0.21015333 0.16826163 0.12493076 0.07687889 0.22965454 0.016225468
0.083190575 -0.13482338 -0.20570783 -0.18636183 -0.15644832 -0.091618195 0.14563784 -0.11226741
-0.24775758 0.2519832 0.16072601 0.020846128 0.069710985 -0.060566496 0.27071923 -0.049391244
-0.28508618 0.22266443 0.25265822 0.22518244 0.2528134 0.22366852 -0.0069783926 0.1277598
0.03839679 0.093994856 -0.0901982 -0.11699165 -0.21679232 0.22485451 0.28991544 0.18576396
-0.10897912 -0.030857787 0.23169279 0.17934987 0.1960307 -0.113072775 0.1165577 0.2499218
-0.024799153 0.19426818 -0.04919762 -0.12929697 0.21067926 0.1611883 0.26917922 0.21463865
0.26770937 0.20105155 0.3052666 -0.07071613
00000000: 52ea 95bc 3616 debd 7b8f 763d 30b1 ef3d
00000010: 6a64 403e a6ea 50be c590 e0bd c28e de3d
00000020: 2365 9f3e f80e 3bbd eeb6 c33d 2363 d6bd
00000030: 6348 8a3d e6ac 80bd 7b3d d1bd 685e 693e
00000040: 7d6b 823e e495 ce3d 852f 033e 1e2c 863e
00000050: 6154 c9bd d82a 3a3e d8b5 29bd 62a9 ee3d
00000060: 0ce5 15bd bcc8 19bd f940 47bd 5155 833e
00000070: 2f9e 293e a6c2 313e c22e 0bbd b269 ff3d
00000080: e4d4 1c3d 4b94 cc3d 30cf 833e e52f 76bd
00000090: 20e4 21bc 4f49 69bb 6c71 d9bd 7461 593d
000000a0: 385b f53c 636c 9abd 6f32 573e c74c 2c3e
000000b0: b3db ff3d ae72 9d3d 8f2a 6b3e 46eb 843c
000000c0: d25f aa3d 240f 0abe 13a5 52be a3d5 3ebe
000000d0: fd33 20be 52a2 bbbd 1622 153e 75ec e5bd
000000e0: 2ab4 7dbe f103 813e 5c95 243e 80c5 aa3c
000000f0: a2c4 8e3d 9314 78bd b69b 8a3e 794e 4abd
00000100: d1f6 91be 2502 643e 6b5c 813e 3a96 663e
00000110: c270 813e 5c09 653e 00ab e4bb 77d3 023e
00000120: f445 1d3d 6080 c03d d5b9 b8bd 5199 efbd
00000130: cefe 5dbe 4340 663e cc6f 943e e838 3e3e
00000140: 7230 dfbd 78c9 fcbc e040 6d3e 7ea7 373e
00000150: 46bc 483e b392 e7bd ceb5 ee3d 80eb 7f3e
00000160: 9827 cbbc 3dee 463e 7283 49bd 6d66 04be
00000170: 4ebc 573e 8c0e 253e dcd1 893e 3cca 5b3e
00000180: 3411 893e 75e0 4d3e e74b 9c3e 9ed3 90bd

fc3.bias f4 [2]
0.1442778 0.16825831
00000000: 8fbd 133e e84b 2c3e
